…
  82%|████████▏ | 29246/35598 [00:04<00:00, 7479.30 examples/s]Tokenizing test set:  87%|████████▋ | 30943/35598 [00:04<00:00, 7000.02 examples/s]Tokenizing test set:  90%|████████▉ | 32000/35598 [00:04<00:00, 7313.26 examples/s]Tokenizing test set:  93%|█████████▎| 32980/35598 [00:04<00:00, 6625.59 examples/s]Tokenizing test set:  96%|█████████▌| 34000/35598 [00:04<00:00, 6994.07 examples/s]Tokenizing test set:  98%|█████████▊| 35000/35598 [00:05<00:00, 5989.70 examples/s]Tokenizing test set: 100%|██████████| 35598/35598 [00:05<00:00, 6825.98 examples/s]
INFO:root:DIFF_GRM(
  (embedding): Embedding(1027, 256)
  (item_mlp): Sequential(
    (0): Linear(in_features=1024, out_features=256, bias=True)
    (1): ReLU()
    (2): Linear(in_features=256, out_features=256, bias=True)
  )
  (mask_emb_table): Embedding(4, 256)
  (pos_emb_enc): Embedding(50, 256)
  (encoder_blocks): ModuleList(
    (0-1): 2 x EncoderBlock(
      (ln_1): LayerNorm((256,), eps=1e-05, elementwise_affine=True)
      (attn): MultiHeadAttention(
        (qkv): Linear(in_features=256, out_features=768, bias=False)
        (proj): Linear(in_features=256, out_features=256, bias=True)
        (attn_dropout): Dropout(p=0.1, inplace=False)
        (resid_dropout): Dropout(p=0.1, inplace=False)
      )
      (ln_2): LayerNorm((256,), eps=1e-05, elementwise_affine=True)
      (mlp): FeedForward(
        (c_fc): Linear(in_features=256, out_features=1024, bias=True)
        (c_proj): Linear(in_features=1024, out_features=256, bias=True)
        (dropout): Dropout(p=0.1, inplace=False)
      )
    )
  )
  (decoder_blocks): ModuleList(
    (0-3): 4 x DecoderBlock(
      (ln_1): LayerNorm((256,), eps=1e-05, elementwise_affine=True)
      (self_attn): MultiHeadAttention(
        (qkv): Linear(in_features=256, out_features=768, bias=False)
        (proj): Linear(in_features=256, out_features=256, bias=True)
        (attn_dropout): Dropout(p=0.1, inplace=False)
        (resid_dropout): Dropout(p=0.1, inplace=False)
      )
      (ln_2): LayerNorm((256,), eps=1e-05, elementwise_affine=True)
      (cross_attn): MultiHeadAttention(
        (qkv): Linear(in_features=256, out_features=768, bias=False)
        (proj): Linear(in_features=256, out_features=256, bias=True)
        (attn_dropout): Dropout(p=0.1, inplace=False)
        (resid_dropout): Dropout(p=0.1, inplace=False)
      )
      (ln_3): LayerNorm((256,), eps=1e-05, elementwise_affine=True)
      (mlp): FeedForward(
        (c_fc): Linear(in_features=256, out_features=1024, bias=True)
        (c_proj): Linear(in_features=1024, out_features=256, bias=True)
        (dropout): Dropout(p=0.1, inplace=False)
      )
    )
  )
  (ln_f): LayerNorm((256,), eps=1e-05, elementwise_affine=True)
  (output_adapter): Identity()
  (drop): Dropout(p=0.1, inplace=False)
)
INFO:root:6,391,040
[MODEL] ▶ use GUIDED views: steps=4, metric=top1, augment_factor=4
[DIFF_GRM] Using shared embedding dot-product output layer
[TRAINING] Evaluation config: start from epoch 15, interval: 2
Training - [Epoch 1]:   0%|          | 0/149 [00:00<?, ?it/s]Training - 
…
