…
  81%|████████  | 28920/35598 [00:04<00:00, 7815.62 examples/s]Tokenizing test set:  84%|████████▍ | 30000/35598 [00:04<00:00, 6306.35 examples/s]Tokenizing test set:  88%|████████▊ | 31230/35598 [00:04<00:00, 7370.43 examples/s]Tokenizing test set:  93%|█████████▎| 32967/35598 [00:04<00:00, 7104.57 examples/s]Tokenizing test set:  96%|█████████▌| 34000/35598 [00:04<00:00, 7373.24 examples/s]Tokenizing test set:  98%|█████████▊| 35000/35598 [00:05<00:00, 6312.26 examples/s]Tokenizing test set: 100%|██████████| 35598/35598 [00:05<00:00, 6872.87 examples/s]
INFO:root:DIFF_GRM(
  (embedding): Embedding(1027, 256)
  (item_mlp): Sequential(
    (0): Linear(in_features=1024, out_features=256, bias=True)
    (1): ReLU()
    (2): Linear(in_features=256, out_features=256, bias=True)
  )
  (mask_emb_table): Embedding(4, 256)
  (pos_emb_enc): Embedding(50, 256)
  (encoder_blocks): ModuleList(
    (0-1): 2 x EncoderBlock(
      (ln_1): LayerNorm((256,), eps=1e-05, elementwise_affine=True)
      (attn): MultiHeadAttention(
        (qkv): Linear(in_features=256, out_features=768, bias=False)
        (proj): Linear(in_features=256, out_features=256, bias=True)
        (attn_dropout): Dropout(p=0.1, inplace=False)
        (resid_dropout): Dropout(p=0.1, inplace=False)
      )
      (ln_2): LayerNorm((256,), eps=1e-05, elementwise_affine=True)
      (mlp): FeedForward(
        (c_fc): Linear(in_features=256, out_features=1024, bias=True)
        (c_proj): Linear(in_features=1024, out_features=256, bias=True)
        (dropout): Dropout(p=0.1, inplace=False)
      )
    )
  )
  (decoder_blocks): ModuleList(
    (0-3): 4 x DecoderBlock(
      (ln_1): LayerNorm((256,), eps=1e-05, elementwise_affine=True)
      (self_attn): MultiHeadAttention(
        (qkv): Linear(in_features=256, out_features=768, bias=False)
        (proj): Linear(in_features=256, out_features=256, bias=True)
        (attn_dropout): Dropout(p=0.1, inplace=False)
        (resid_dropout): Dropout(p=0.1, inplace=False)
      )
      (ln_2): LayerNorm((256,), eps=1e-05, elementwise_affine=True)
      (cross_attn): MultiHeadAttention(
        (qkv): Linear(in_features=256, out_features=768, bias=False)
        (proj): Linear(in_features=256, out_features=256, bias=True)
        (attn_dropout): Dropout(p=0.1, inplace=False)
        (resid_dropout): Dropout(p=0.1, inplace=False)
      )
      (ln_3): LayerNorm((256,), eps=1e-05, elementwise_affine=True)
      (mlp): FeedForward(
        (c_fc): Linear(in_features=256, out_features=1024, bias=True)
        (c_proj): Linear(in_features=1024, out_features=256, bias=True)
        (dropout): Dropout(p=0.1, inplace=False)
      )
    )
  )
  (ln_f): LayerNorm((256,), eps=1e-05, elementwise_affine=True)
  (output_adapter): Identity()
  (drop): Dropout(p=0.1, inplace=False)
)
INFO:root:6,391,040
[MODEL] Using RANDOMLY-SAMPLED masking prob: 0.9296 (range [0.0, 1.0]); disable multi-view (augment_factor=1)
[DIFF_GRM] Using shared embedding dot-product output layer
[TRAINING] Evaluation config: start from epoch 25, interval: 2
[MODEL] [Epoch-Resample] RANDOM masking prob resampled to 0.3164 (range [0.0, 1.0]); augment_factor=1
…
