…
t:  82%|████████▏ | 29231/35598 [00:04<00:00, 6683.22 examples/s]Tokenizing test set:  86%|████████▌ | 30570/35598 [00:04<00:00, 6035.41 examples/s]Tokenizing test set:  90%|████████▉ | 31878/35598 [00:04<00:00, 7147.87 examples/s]Tokenizing test set:  93%|█████████▎| 32966/35598 [00:05<00:00, 6017.65 examples/s]Tokenizing test set:  96%|█████████▌| 34000/35598 [00:05<00:00, 6416.29 examples/s]Tokenizing test set:  99%|█████████▉| 35214/35598 [00:05<00:00, 7531.49 examples/s]Tokenizing test set: 100%|██████████| 35598/35598 [00:05<00:00, 6461.92 examples/s]
INFO:root:AR_GRM(
  (embedding): Embedding(1027, 256)
  (item_mlp): Sequential(
    (0): Linear(in_features=1024, out_features=256, bias=True)
    (1): ReLU()
    (2): Linear(in_features=256, out_features=256, bias=True)
  )
  (pos_emb_enc): Embedding(50, 256)
  (encoder_blocks): ModuleList(
    (0-1): 2 x EncoderBlock(
      (ln_1): LayerNorm((256,), eps=1e-05, elementwise_affine=True)
      (attn): MultiHeadAttention(
        (qkv): Linear(in_features=256, out_features=768, bias=False)
        (proj): Linear(in_features=256, out_features=256, bias=True)
        (attn_dropout): Dropout(p=0.1, inplace=False)
        (resid_dropout): Dropout(p=0.1, inplace=False)
      )
      (ln_2): LayerNorm((256,), eps=1e-05, elementwise_affine=True)
      (mlp): FeedForward(
        (c_fc): Linear(in_features=256, out_features=1024, bias=True)
        (c_proj): Linear(in_features=1024, out_features=256, bias=True)
        (dropout): Dropout(p=0.1, inplace=False)
      )
    )
  )
  (decoder_blocks): ModuleList(
    (0-3): 4 x DecoderBlock(
      (ln_1): LayerNorm((256,), eps=1e-05, elementwise_affine=True)
      (self_attn): MultiHeadAttention(
        (qkv): Linear(in_features=256, out_features=768, bias=False)
        (proj): Linear(in_features=256, out_features=256, bias=True)
        (attn_dropout): Dropout(p=0.1, inplace=False)
        (resid_dropout): Dropout(p=0.1, inplace=False)
      )
      (ln_2): LayerNorm((256,), eps=1e-05, elementwise_affine=True)
      (cross_attn): MultiHeadAttention(
        (qkv): Linear(in_features=256, out_features=768, bias=False)
        (proj): Linear(in_features=256, out_features=256, bias=True)
        (attn_dropout): Dropout(p=0.1, inplace=False)
        (resid_dropout): Dropout(p=0.1, inplace=False)
      )
      (ln_3): LayerNorm((256,), eps=1e-05, elementwise_affine=True)
      (mlp): FeedForward(
        (c_fc): Linear(in_features=256, out_features=1024, bias=True)
        (c_proj): Linear(in_features=1024, out_features=256, bias=True)
        (dropout): Dropout(p=0.1, inplace=False)
      )
    )
  )
  (ln_f): LayerNorm((256,), eps=1e-05, elementwise_affine=True)
  (output_adapter): Identity()
  (drop): Dropout(p=0.1, inplace=False)
)
INFO:root:6,390,272
[AR_GRM] Using shared embedding dot-product output layer
[TRAINING] Evaluation config: start from epoch 25, interval: 2
Training - [Epoch 1]:   0%|          | 0/149 [00:00<?, ?it/s]Training - [Epoch 1]:   1%|          | 1/149 [00:33<1:21:44, 33.14s/it]Training
…
