…
t:  81%|████████▏ | 29000/35598 [00:04<00:01, 6320.76 examples/s]Tokenizing test set:  85%|████████▍ | 30245/35598 [00:04<00:00, 7444.61 examples/s]Tokenizing test set:  90%|████████▉ | 31914/35598 [00:04<00:00, 6959.87 examples/s]Tokenizing test set:  93%|█████████▎| 33000/35598 [00:04<00:00, 7322.16 examples/s]Tokenizing test set:  96%|█████████▌| 34000/35598 [00:04<00:00, 6264.92 examples/s]Tokenizing test set:  99%|█████████▉| 35254/35598 [00:05<00:00, 7418.54 examples/s]Tokenizing test set: 100%|██████████| 35598/35598 [00:05<00:00, 6746.83 examples/s]
INFO:root:AR_GRM(
  (embedding): Embedding(1027, 256)
  (item_mlp): Sequential(
    (0): Linear(in_features=1024, out_features=256, bias=True)
    (1): ReLU()
    (2): Linear(in_features=256, out_features=256, bias=True)
  )
  (pos_emb_enc): Embedding(50, 256)
  (encoder_blocks): ModuleList(
    (0-1): 2 x EncoderBlock(
      (ln_1): LayerNorm((256,), eps=1e-05, elementwise_affine=True)
      (attn): MultiHeadAttention(
        (qkv): Linear(in_features=256, out_features=768, bias=False)
        (proj): Linear(in_features=256, out_features=256, bias=True)
        (attn_dropout): Dropout(p=0.1, inplace=False)
        (resid_dropout): Dropout(p=0.1, inplace=False)
      )
      (ln_2): LayerNorm((256,), eps=1e-05, elementwise_affine=True)
      (mlp): FeedForward(
        (c_fc): Linear(in_features=256, out_features=1024, bias=True)
        (c_proj): Linear(in_features=1024, out_features=256, bias=True)
        (dropout): Dropout(p=0.1, inplace=False)
      )
    )
  )
  (decoder_blocks): ModuleList(
    (0-3): 4 x DecoderBlock(
      (ln_1): LayerNorm((256,), eps=1e-05, elementwise_affine=True)
      (self_attn): MultiHeadAttention(
        (qkv): Linear(in_features=256, out_features=768, bias=False)
        (proj): Linear(in_features=256, out_features=256, bias=True)
        (attn_dropout): Dropout(p=0.1, inplace=False)
        (resid_dropout): Dropout(p=0.1, inplace=False)
      )
      (ln_2): LayerNorm((256,), eps=1e-05, elementwise_affine=True)
      (cross_attn): MultiHeadAttention(
        (qkv): Linear(in_features=256, out_features=768, bias=False)
        (proj): Linear(in_features=256, out_features=256, bias=True)
        (attn_dropout): Dropout(p=0.1, inplace=False)
        (resid_dropout): Dropout(p=0.1, inplace=False)
      )
      (ln_3): LayerNorm((256,), eps=1e-05, elementwise_affine=True)
      (mlp): FeedForward(
        (c_fc): Linear(in_features=256, out_features=1024, bias=True)
        (c_proj): Linear(in_features=1024, out_features=256, bias=True)
        (dropout): Dropout(p=0.1, inplace=False)
      )
    )
  )
  (ln_f): LayerNorm((256,), eps=1e-05, elementwise_affine=True)
  (output_adapter): Identity()
  (drop): Dropout(p=0.1, inplace=False)
)
INFO:root:6,390,272
[AR_GRM] Using shared embedding dot-product output layer
[TRAINING] Evaluation config: start from epoch 25, interval: 2
Training - [Epoch 1]:   0%|          | 0/149 [00:00<?, ?it/s]Training - [Epoch 1]:   1%|          | 1/149 [00:30<1:15:35, 30.65s/it]Training
…
