…
  67%|██████▋   | 13000/19412 [00:02<00:01, 6263.88 examples/s]Tokenizing test set:  73%|███████▎  | 14219/19412 [00:02<00:00, 7441.59 examples/s]Tokenizing test set:  82%|████████▏ | 15912/19412 [00:02<00:00, 7034.03 examples/s]Tokenizing test set:  88%|████████▊ | 17000/19412 [00:02<00:00, 7392.29 examples/s]Tokenizing test set:  93%|█████████▎| 17989/19412 [00:02<00:00, 6734.35 examples/s]Tokenizing test set:  98%|█████████▊| 19000/19412 [00:02<00:00, 7039.15 examples/s]Tokenizing test set: 100%|██████████| 19412/19412 [00:02<00:00, 6834.67 examples/s]
INFO:root:DIFF_GRM(
  (embedding): Embedding(1027, 512)
  (item_mlp): Sequential(
    (0): Linear(in_features=2048, out_features=512, bias=True)
    (1): ReLU()
    (2): Linear(in_features=512, out_features=512, bias=True)
  )
  (mask_emb_table): Embedding(4, 512)
  (pos_emb_enc): Embedding(50, 512)
  (encoder_blocks): ModuleList(
    (0-1): 2 x EncoderBlock(
      (ln_1): LayerNorm((512,), eps=1e-05, elementwise_affine=True)
      (attn): MultiHeadAttention(
        (qkv): Linear(in_features=512, out_features=1536, bias=False)
        (proj): Linear(in_features=512, out_features=512, bias=True)
        (attn_dropout): Dropout(p=0.1, inplace=False)
        (resid_dropout): Dropout(p=0.1, inplace=False)
      )
      (ln_2): LayerNorm((512,), eps=1e-05, elementwise_affine=True)
      (mlp): FeedForward(
        (c_fc): Linear(in_features=512, out_features=1024, bias=True)
        (c_proj): Linear(in_features=1024, out_features=512, bias=True)
        (dropout): Dropout(p=0.1, inplace=False)
      )
    )
  )
  (decoder_blocks): ModuleList(
    (0-3): 4 x DecoderBlock(
      (ln_1): LayerNorm((512,), eps=1e-05, elementwise_affine=True)
      (self_attn): MultiHeadAttention(
        (qkv): Linear(in_features=512, out_features=1536, bias=False)
        (proj): Linear(in_features=512, out_features=512, bias=True)
        (attn_dropout): Dropout(p=0.1, inplace=False)
        (resid_dropout): Dropout(p=0.1, inplace=False)
      )
      (ln_2): LayerNorm((512,), eps=1e-05, elementwise_affine=True)
      (cross_attn): MultiHeadAttention(
        (qkv): Linear(in_features=512, out_features=1536, bias=False)
        (proj): Linear(in_features=512, out_features=512, bias=True)
        (attn_dropout): Dropout(p=0.1, inplace=False)
        (resid_dropout): Dropout(p=0.1, inplace=False)
      )
      (ln_3): LayerNorm((512,), eps=1e-05, elementwise_affine=True)
      (mlp): FeedForward(
        (c_fc): Linear(in_features=512, out_features=1024, bias=True)
        (c_proj): Linear(in_features=1024, out_features=512, bias=True)
        (dropout): Dropout(p=0.1, inplace=False)
      )
    )
  )
  (ln_f): LayerNorm((512,), eps=1e-05, elementwise_affine=True)
  (output_adapter): Identity()
  (drop): Dropout(p=0.1, inplace=False)
)
INFO:root:18,674,176
[MODEL] ▶ use SEQUENTIAL views: steps=4, paths=8, augment_factor=32
[DIFF_GRM] Using shared embedding dot-product output layer
[TRAINING] Evaluation config: start from epoch 20, interval: 2
Training - [Epoch 1]:   0%|          | 0/171 [00:00<?, ?it/s]Training 
…
