…
  72%|███████▏  | 14000/19412 [00:02<00:00, 5766.66 examples/s]Tokenizing test set:  78%|███████▊  | 15078/19412 [00:02<00:00, 6699.74 examples/s]Tokenizing test set:  83%|████████▎ | 16021/19412 [00:02<00:00, 5511.52 examples/s]Tokenizing test set:  88%|████████▊ | 17046/19412 [00:02<00:00, 6388.91 examples/s]Tokenizing test set:  93%|█████████▎| 18000/19412 [00:02<00:00, 6821.37 examples/s]Tokenizing test set:  98%|█████████▊| 19000/19412 [00:02<00:00, 5787.40 examples/s]Tokenizing test set: 100%|██████████| 19412/19412 [00:02<00:00, 6494.64 examples/s]
INFO:root:DIFF_GRM(
  (embedding): Embedding(1027, 256)
  (item_mlp): Sequential(
    (0): Linear(in_features=1024, out_features=256, bias=True)
    (1): ReLU()
    (2): Linear(in_features=256, out_features=256, bias=True)
  )
  (mask_emb_table): Embedding(4, 256)
  (pos_emb_enc): Embedding(50, 256)
  (encoder_blocks): ModuleList(
    (0-3): 4 x EncoderBlock(
      (ln_1): LayerNorm((256,), eps=1e-05, elementwise_affine=True)
      (attn): MultiHeadAttention(
        (qkv): Linear(in_features=256, out_features=768, bias=False)
        (proj): Linear(in_features=256, out_features=256, bias=True)
        (attn_dropout): Dropout(p=0.1, inplace=False)
        (resid_dropout): Dropout(p=0.1, inplace=False)
      )
      (ln_2): LayerNorm((256,), eps=1e-05, elementwise_affine=True)
      (mlp): FeedForward(
        (c_fc): Linear(in_features=256, out_features=1024, bias=True)
        (c_proj): Linear(in_features=1024, out_features=256, bias=True)
        (dropout): Dropout(p=0.1, inplace=False)
      )
    )
  )
  (decoder_blocks): ModuleList(
    (0-3): 4 x DecoderBlock(
      (ln_1): LayerNorm((256,), eps=1e-05, elementwise_affine=True)
      (self_attn): MultiHeadAttention(
        (qkv): Linear(in_features=256, out_features=768, bias=False)
        (proj): Linear(in_features=256, out_features=256, bias=True)
        (attn_dropout): Dropout(p=0.1, inplace=False)
        (resid_dropout): Dropout(p=0.1, inplace=False)
      )
      (ln_2): LayerNorm((256,), eps=1e-05, elementwise_affine=True)
      (cross_attn): MultiHeadAttention(
        (qkv): Linear(in_features=256, out_features=768, bias=False)
        (proj): Linear(in_features=256, out_features=256, bias=True)
        (attn_dropout): Dropout(p=0.1, inplace=False)
        (resid_dropout): Dropout(p=0.1, inplace=False)
      )
      (ln_3): LayerNorm((256,), eps=1e-05, elementwise_affine=True)
      (mlp): FeedForward(
        (c_fc): Linear(in_features=256, out_features=1024, bias=True)
        (c_proj): Linear(in_features=1024, out_features=256, bias=True)
        (dropout): Dropout(p=0.1, inplace=False)
      )
    )
  )
  (ln_f): LayerNorm((256,), eps=1e-05, elementwise_affine=True)
  (output_adapter): Identity()
  (drop): Dropout(p=0.1, inplace=False)
)
INFO:root:7,969,024
[MODEL] ▶ use SEQUENTIAL views: steps=4, paths=16, augment_factor=64
[DIFF_GRM] Using shared embedding dot-product output layer
[TRAINING] Evaluation config: start from epoch 20, interval: 2
Training - [Epoch 1]:   0%|          | 0/171 [00:00<?, ?it/s]Training 
…
