…
  67%|██████▋   | 13000/19412 [00:01<00:00, 7550.98 examples/s]Tokenizing test set:  72%|███████▏  | 14000/19412 [00:02<00:00, 6291.82 examples/s]Tokenizing test set:  78%|███████▊  | 15210/19412 [00:02<00:00, 7468.08 examples/s]Tokenizing test set:  87%|████████▋ | 16923/19412 [00:02<00:00, 7021.56 examples/s]Tokenizing test set:  93%|█████████▎| 18000/19412 [00:02<00:00, 7360.21 examples/s]Tokenizing test set:  98%|█████████▊| 19000/19412 [00:02<00:00, 6320.78 examples/s]Tokenizing test set: 100%|██████████| 19412/19412 [00:02<00:00, 6823.07 examples/s]
INFO:root:DIFF_GRM(
  (embedding): Embedding(1027, 512)
  (item_mlp): Sequential(
    (0): Linear(in_features=2048, out_features=512, bias=True)
    (1): ReLU()
    (2): Linear(in_features=512, out_features=512, bias=True)
  )
  (mask_emb_table): Embedding(4, 512)
  (pos_emb_enc): Embedding(50, 512)
  (encoder_blocks): ModuleList(
    (0-3): 4 x EncoderBlock(
      (ln_1): LayerNorm((512,), eps=1e-05, elementwise_affine=True)
      (attn): MultiHeadAttention(
        (qkv): Linear(in_features=512, out_features=1536, bias=False)
        (proj): Linear(in_features=512, out_features=512, bias=True)
        (attn_dropout): Dropout(p=0.1, inplace=False)
        (resid_dropout): Dropout(p=0.1, inplace=False)
      )
      (ln_2): LayerNorm((512,), eps=1e-05, elementwise_affine=True)
      (mlp): FeedForward(
        (c_fc): Linear(in_features=512, out_features=1024, bias=True)
        (c_proj): Linear(in_features=1024, out_features=512, bias=True)
        (dropout): Dropout(p=0.1, inplace=False)
      )
    )
  )
  (decoder_blocks): ModuleList(
    (0-3): 4 x DecoderBlock(
      (ln_1): LayerNorm((512,), eps=1e-05, elementwise_affine=True)
      (self_attn): MultiHeadAttention(
        (qkv): Linear(in_features=512, out_features=1536, bias=False)
        (proj): Linear(in_features=512, out_features=512, bias=True)
        (attn_dropout): Dropout(p=0.1, inplace=False)
        (resid_dropout): Dropout(p=0.1, inplace=False)
      )
      (ln_2): LayerNorm((512,), eps=1e-05, elementwise_affine=True)
      (cross_attn): MultiHeadAttention(
        (qkv): Linear(in_features=512, out_features=1536, bias=False)
        (proj): Linear(in_features=512, out_features=512, bias=True)
        (attn_dropout): Dropout(p=0.1, inplace=False)
        (resid_dropout): Dropout(p=0.1, inplace=False)
      )
      (ln_3): LayerNorm((512,), eps=1e-05, elementwise_affine=True)
      (mlp): FeedForward(
        (c_fc): Linear(in_features=512, out_features=1024, bias=True)
        (c_proj): Linear(in_features=1024, out_features=512, bias=True)
        (dropout): Dropout(p=0.1, inplace=False)
      )
    )
  )
  (ln_f): LayerNorm((512,), eps=1e-05, elementwise_affine=True)
  (output_adapter): Identity()
  (drop): Dropout(p=0.1, inplace=False)
)
INFO:root:22,876,672
[MODEL] ▶ use SEQUENTIAL views: steps=4, paths=1, augment_factor=4
[DIFF_GRM] Using shared embedding dot-product output layer
[TRAINING] Evaluation config: start from epoch 20, interval: 2
Training - [Epoch 1]:   0%|          | 0/171 [00:00<?, ?it/s]Training -
…
