…
  68%|██████▊   | 15196/22363 [00:02<00:00, 7414.20 examples/s]Tokenizing test set:  76%|███████▌  | 16907/22363 [00:02<00:00, 7066.78 examples/s]Tokenizing test set:  80%|████████  | 18000/22363 [00:02<00:00, 7413.91 examples/s]Tokenizing test set:  85%|████████▍ | 19000/22363 [00:02<00:00, 6391.35 examples/s]Tokenizing test set:  90%|█████████ | 20231/22363 [00:02<00:00, 7499.26 examples/s]Tokenizing test set:  98%|█████████▊| 21936/22363 [00:03<00:00, 7131.45 examples/s]Tokenizing test set: 100%|██████████| 22363/22363 [00:03<00:00, 7010.29 examples/s]
INFO:root:DIFF_GRM(
  (embedding): Embedding(1027, 512)
  (item_mlp): Sequential(
    (0): Linear(in_features=2048, out_features=512, bias=True)
    (1): ReLU()
    (2): Linear(in_features=512, out_features=512, bias=True)
  )
  (mask_emb_table): Embedding(4, 512)
  (pos_emb_enc): Embedding(50, 512)
  (encoder_blocks): ModuleList(
    (0-1): 2 x EncoderBlock(
      (ln_1): LayerNorm((512,), eps=1e-05, elementwise_affine=True)
      (attn): MultiHeadAttention(
        (qkv): Linear(in_features=512, out_features=1536, bias=False)
        (proj): Linear(in_features=512, out_features=512, bias=True)
        (attn_dropout): Dropout(p=0.1, inplace=False)
        (resid_dropout): Dropout(p=0.1, inplace=False)
      )
      (ln_2): LayerNorm((512,), eps=1e-05, elementwise_affine=True)
      (mlp): FeedForward(
        (c_fc): Linear(in_features=512, out_features=1024, bias=True)
        (c_proj): Linear(in_features=1024, out_features=512, bias=True)
        (dropout): Dropout(p=0.1, inplace=False)
      )
    )
  )
  (decoder_blocks): ModuleList(
    (0-3): 4 x DecoderBlock(
      (ln_1): LayerNorm((512,), eps=1e-05, elementwise_affine=True)
      (self_attn): MultiHeadAttention(
        (qkv): Linear(in_features=512, out_features=1536, bias=False)
        (proj): Linear(in_features=512, out_features=512, bias=True)
        (attn_dropout): Dropout(p=0.1, inplace=False)
        (resid_dropout): Dropout(p=0.1, inplace=False)
      )
      (ln_2): LayerNorm((512,), eps=1e-05, elementwise_affine=True)
      (cross_attn): MultiHeadAttention(
        (qkv): Linear(in_features=512, out_features=1536, bias=False)
        (proj): Linear(in_features=512, out_features=512, bias=True)
        (attn_dropout): Dropout(p=0.1, inplace=False)
        (resid_dropout): Dropout(p=0.1, inplace=False)
      )
      (ln_3): LayerNorm((512,), eps=1e-05, elementwise_affine=True)
      (mlp): FeedForward(
        (c_fc): Linear(in_features=512, out_features=1024, bias=True)
        (c_proj): Linear(in_features=1024, out_features=512, bias=True)
        (dropout): Dropout(p=0.1, inplace=False)
      )
    )
  )
  (ln_f): LayerNorm((512,), eps=1e-05, elementwise_affine=True)
  (output_adapter): Identity()
  (drop): Dropout(p=0.1, inplace=False)
)
INFO:root:18,674,176
[MODEL] ▶ use SEQUENTIAL views: steps=4, paths=1, augment_factor=4
[DIFF_GRM] Using shared embedding dot-product output layer
[TRAINING] Evaluation config: start from epoch 20, interval: 2
Training - [Epoch 1]:   0%|          | 0/104 [00:00<?, ?it/s]Training -
…
