…
  71%|███████▏  | 15953/22363 [00:02<00:01, 6048.63 examples/s]Tokenizing test set:  76%|███████▌  | 17000/22363 [00:02<00:00, 6481.16 examples/s]Tokenizing test set:  81%|████████▏ | 18223/22363 [00:02<00:00, 7574.56 examples/s]Tokenizing test set:  89%|████████▉ | 19922/22363 [00:02<00:00, 7006.11 examples/s]Tokenizing test set:  94%|█████████▎| 20927/22363 [00:03<00:00, 6139.73 examples/s]Tokenizing test set:  98%|█████████▊| 22000/22363 [00:03<00:00, 6610.54 examples/s]Tokenizing test set: 100%|██████████| 22363/22363 [00:03<00:00, 6835.97 examples/s]
INFO:root:DIFF_GRM(
  (embedding): Embedding(1027, 256)
  (item_mlp): Sequential(
    (0): Linear(in_features=1024, out_features=256, bias=True)
    (1): ReLU()
    (2): Linear(in_features=256, out_features=256, bias=True)
  )
  (mask_emb_table): Embedding(4, 256)
  (pos_emb_enc): Embedding(50, 256)
  (encoder_blocks): ModuleList(
    (0-1): 2 x EncoderBlock(
      (ln_1): LayerNorm((256,), eps=1e-05, elementwise_affine=True)
      (attn): MultiHeadAttention(
        (qkv): Linear(in_features=256, out_features=768, bias=False)
        (proj): Linear(in_features=256, out_features=256, bias=True)
        (attn_dropout): Dropout(p=0.1, inplace=False)
        (resid_dropout): Dropout(p=0.1, inplace=False)
      )
      (ln_2): LayerNorm((256,), eps=1e-05, elementwise_affine=True)
      (mlp): FeedForward(
        (c_fc): Linear(in_features=256, out_features=1024, bias=True)
        (c_proj): Linear(in_features=1024, out_features=256, bias=True)
        (dropout): Dropout(p=0.1, inplace=False)
      )
    )
  )
  (decoder_blocks): ModuleList(
    (0-3): 4 x DecoderBlock(
      (ln_1): LayerNorm((256,), eps=1e-05, elementwise_affine=True)
      (self_attn): MultiHeadAttention(
        (qkv): Linear(in_features=256, out_features=768, bias=False)
        (proj): Linear(in_features=256, out_features=256, bias=True)
        (attn_dropout): Dropout(p=0.1, inplace=False)
        (resid_dropout): Dropout(p=0.1, inplace=False)
      )
      (ln_2): LayerNorm((256,), eps=1e-05, elementwise_affine=True)
      (cross_attn): MultiHeadAttention(
        (qkv): Linear(in_features=256, out_features=768, bias=False)
        (proj): Linear(in_features=256, out_features=256, bias=True)
        (attn_dropout): Dropout(p=0.1, inplace=False)
        (resid_dropout): Dropout(p=0.1, inplace=False)
      )
      (ln_3): LayerNorm((256,), eps=1e-05, elementwise_affine=True)
      (mlp): FeedForward(
        (c_fc): Linear(in_features=256, out_features=1024, bias=True)
        (c_proj): Linear(in_features=1024, out_features=256, bias=True)
        (dropout): Dropout(p=0.1, inplace=False)
      )
    )
  )
  (ln_f): LayerNorm((256,), eps=1e-05, elementwise_affine=True)
  (output_adapter): Identity()
  (drop): Dropout(p=0.1, inplace=False)
)
INFO:root:6,391,040
WARNING:accelerate.utils.other:Detected kernel version 4.18.0, which is below the recommended minimum of 5.5.0; this can cause the process to hang. It is recommended to upgrade the kernel to the minimum version or higher.
[MODEL] ▶ use SEQUENTIAL views: steps=4, paths=2, augment_factor=8
…
