…
t:  72%|███████▏  | 16000/22363 [00:02<00:00, 7450.83 examples/s]Tokenizing test set:  76%|███████▌  | 17000/22363 [00:02<00:00, 6221.66 examples/s]Tokenizing test set:  81%|████████▏ | 18188/22363 [00:02<00:00, 7349.97 examples/s]Tokenizing test set:  89%|████████▉ | 19890/22363 [00:02<00:00, 6799.81 examples/s]Tokenizing test set:  94%|█████████▍| 21000/22363 [00:03<00:00, 7207.46 examples/s]Tokenizing test set:  98%|█████████▊| 22000/22363 [00:03<00:00, 6229.51 examples/s]Tokenizing test set: 100%|██████████| 22363/22363 [00:03<00:00, 6697.43 examples/s]
INFO:root:AR_GRM(
  (embedding): Embedding(1027, 256)
  (item_mlp): Sequential(
    (0): Linear(in_features=1024, out_features=256, bias=True)
    (1): ReLU()
    (2): Linear(in_features=256, out_features=256, bias=True)
  )
  (pos_emb_enc): Embedding(50, 256)
  (encoder_blocks): ModuleList(
    (0-1): 2 x EncoderBlock(
      (ln_1): LayerNorm((256,), eps=1e-05, elementwise_affine=True)
      (attn): MultiHeadAttention(
        (qkv): Linear(in_features=256, out_features=768, bias=False)
        (proj): Linear(in_features=256, out_features=256, bias=True)
        (attn_dropout): Dropout(p=0.1, inplace=False)
        (resid_dropout): Dropout(p=0.1, inplace=False)
      )
      (ln_2): LayerNorm((256,), eps=1e-05, elementwise_affine=True)
      (mlp): FeedForward(
        (c_fc): Linear(in_features=256, out_features=1024, bias=True)
        (c_proj): Linear(in_features=1024, out_features=256, bias=True)
        (dropout): Dropout(p=0.1, inplace=False)
      )
    )
  )
  (decoder_blocks): ModuleList(
    (0-3): 4 x DecoderBlock(
      (ln_1): LayerNorm((256,), eps=1e-05, elementwise_affine=True)
      (self_attn): MultiHeadAttention(
        (qkv): Linear(in_features=256, out_features=768, bias=False)
        (proj): Linear(in_features=256, out_features=256, bias=True)
        (attn_dropout): Dropout(p=0.1, inplace=False)
        (resid_dropout): Dropout(p=0.1, inplace=False)
      )
      (ln_2): LayerNorm((256,), eps=1e-05, elementwise_affine=True)
      (cross_attn): MultiHeadAttention(
        (qkv): Linear(in_features=256, out_features=768, bias=False)
        (proj): Linear(in_features=256, out_features=256, bias=True)
        (attn_dropout): Dropout(p=0.1, inplace=False)
        (resid_dropout): Dropout(p=0.1, inplace=False)
      )
      (ln_3): LayerNorm((256,), eps=1e-05, elementwise_affine=True)
      (mlp): FeedForward(
        (c_fc): Linear(in_features=256, out_features=1024, bias=True)
        (c_proj): Linear(in_features=1024, out_features=256, bias=True)
        (dropout): Dropout(p=0.1, inplace=False)
      )
    )
  )
  (ln_f): LayerNorm((256,), eps=1e-05, elementwise_affine=True)
  (output_adapter): Identity()
  (drop): Dropout(p=0.1, inplace=False)
)
INFO:root:6,390,272
[AR_GRM] Using shared embedding dot-product output layer
[TRAINING] Evaluation config: start from epoch 20, interval: 2
Training - [Epoch 1]:   0%|          | 0/104 [00:00<?, ?it/s]Training - [Epoch 1]:   1%|          | 1/104 [00:32<56:12, 32.74s/it]Training -
…
